checkpoint.pth (torch, 56639 bytes, 7 tensors)

fc1.weight f4 [128, 37]
0.022916337 -0.1469984 -0.01056853 0.07440525 -0.19756968 0.13114378 -0.1156038 -0.031794596
0.010271487 -0.31445357 -0.042023502 0.047494862 0.04158339 -0.117853954 -0.045794528 0.056072198
-0.08231589 -0.025891298 0.064856015 0.10184658 0.022576742 -0.14727034 -0.14471005 -0.15430814
-0.107235394 -0.09260097 0.07707421 0.075159356 -0.018170692 0.21568082 -0.090701126 0.28514802
0.09828243 -0.2060249 -0.16177492 -0.060825113 0.09893801 0.027846819 0.07959944 0.0032424838
0.16493253 -0.074841164 0.27378207 -0.13341309 -0.22238149 -0.032791298 -0.7929062 0.063074425
-0.07326995 0.023148064 -0.030310918 -0.030060017 0.12567012 0.02490705 0.15066272 0.08488869
-0.055422764 -0.063454404 0.11045594 0.06509344 -0.020863881 0.12859406 0.14471895 0.13940664
0.012481524 -0.044140223 -0.14726804 -0.028370235 0.07512308 -0.0638463 0.11672045 0.04793061
0.007163469 0.002798423 0.08315819 -0.014596997 0.04062752 0.273385 -0.14747179 0.15341309
-0.11332764 -0.13981225 -0.009504018 -0.10020257 0.12280964 -0.036702666 -0.15900464 0.100225404
-0.07681475 0.100221924 0.104767725 -0.0771385 0.029832592 0.15511565 -0.041551553 -0.0662204
0.09701208 -0.033914097 -0.010856299 0.057006285 0.031345405 0.01757896 0.04904342 0.155723
-0.12248378 -0.15191063 0.25327805 0.035364725 0.20931938 0.029255204 0.031151738 0.14545892
0.13111252 0.028577989 0.026747037 0.110636026 0.21087514 0.052486613 -0.25971904 -0.111323625
-0.37982425 -0.00451584 0.09423372 -0.043117803 0.22551632 -0.13005275 -0.1690272 -0.0007757824
0.1371868 0.1506407 -0.039096437 0.093075514 0.14268465 0.07493755 0.18132474 0.106432475
0.15118606 0.03066957 -0.08711027 -0.1011613 -0.17992243 0.08279926 -0.23656337 0.020271897
0.08378009 -0.13932997 -0.04078844 0.024765786 0.14055523 0.14071943 -0.1221026 0.14938195
-0.088473506 0.05786347 -0.09858163 -0.2866868 -0.059417408 -0.029145258 0.12981668 -0.09872594
-0.044803184 0.0782217 -0.0058982703 0.15878855 -0.13497098 0.01995262 -0.024600958 -0.18654206
-0.110050656 -0.08414139 0.030040583 0.004584537 -0.032617938 0.010792226 0.1447557 0.22059414
0.0869025 0.038442753 -0.06742977 0.14950103 -0.08153473 0.0047389707 -0.15308805 0.036249895
-0.04355276 0.14656277 -0.22894175 -0.22163579 0.030384736 -0.09936552 0.06940523 -0.22126585
-0.07079367 -0.08196819 0.12869054 -0.106556214 -0.005400299 0.13095467 0.013580638 -0.08858121
0.047426686 -0.19411476 0.067171976 -0.1480763 0.14003699 -0.06887521 0.029570818 -0.0741665
-0.07834153 0.22939177 0.0009084049 0.02361187 -0.24481855 0.060420334 0.18766956 0.11389382
0.030554486 -0.19161825 -0.12543413 0.23315151 -0.15004277 0.11918914 -0.025916593 -0.08705636
-0.009568498 -0.21172978 0.044864986 0.06291207 0.22229171 0.18140191 -0.029192626 -0.11377426
0.12612431 -0.0032645653 -0.033485074 -0.027266897 -0.035613336 0.21910833 -0.098861545 -0.12154471
-0.1070532 0.11740164 0.03652022 -0.017530737 -0.028828247 0.038055696 -0.11560638 -0.19441555
-0.20175341 0.2627187 0.21722554 -0.2709042 0.18863736 0.004813338 0.004895852 -0.29038778
00000000: 0bbb bb3c c086 16be a127 2dbc c861 983d
00000010: b54f 4abe 8e4a 063e afc1 ecbd 0d3b 02bd
00000020: bd49 283c 0f00 a1be d620 2cbd f989 423d
00000030: 5853 2a3d 6a5d f1bd 0b93 3bbd f6ab 653d
00000040: 3c95 a8bd fd19 d4bc 3bd3 843d f194 d03d
00000050: dcf2 b83c 09ce 16be df2e 14be f402 1ebe
00000060: 3b9e dbbd 94a5 bdbd 15d9 9d3d 26ed 993d
00000070: b4da 94bc 6fdb 5c3e 83c1 b9bd ecfe 913e
00000080: 4c48 c93d 31f8 52be 53a8 25be c123 79bd
00000090: 03a0 ca3d 031f e43c 0805 a33d da7f 543b
000000a0: 13e4 283e 5346 99bd 2a2d 8c3e 719d 08be
000000b0: f9b7 63be 2b50 06bd e7fb 4abf 2a2d 813d
000000c0: 8e0e 96bd 02a1 bd3c 9a4e f8bc 6d40 f6bc
000000d0: abaf 003e df09 cc3c 5447 1a3e 1fda ad3d
000000e0: fb02 63bd 62f4 81bd b936 e23d b64f 853d
000000f0: bbea aabc 29ae 033e 3431 143e 9dc0 0e3e
00000100: 4e7f 4c3c 61cc 34bd 6fcd 16be b268 e8bc
00000110: 21da 993d d9c1 82bd 220b ef3d e352 443d
00000120: 89bb ea3b bf65 373b d74e aa3d 3e28 6fbc
00000130: 0b69 263d 1ef9 8b3e d802 17be 5218 1d3e
00000140: 5218 e8bd f12a 0fbe beb6 1bbc 0137 cdbd
00000150: 9f83 fb3d 8955 16bd 1dd2 22be fa42 cd3d
00000160: 0d51 9dbd 2741 cd3d 7690 d63d cafa 9dbd
00000170: 7b63 f43c a3d6 1e3e f631 2abd 909e 87bd
00000180: 45ae c63d 82e9 0abd 9ede 31bc 6c7f 693d
00000190: 0a64 003d c001 903c c1e1 483d da75 1f3e
000001a0: c7d8 fabd 768e 1bbe a9ad 813e 9ada 103d
000001b0: d257 563e 9ca8 ef3c ee31 ff3c 2ff3 143e
000001c0: 5c42 063e 631c ea3c 9a1c db3c 2495 e23d
000001d0: a7ef 573e 34fc 563d e5f9 84be a4fd e3bd
000001e0: 5378 c2be 9df9 93bb 9cfd c03d 4b9c 30bd
000001f0: c0ed 663e 8c2c 05be 7715 2dbe e05d 4bba
00000200: b27a 0c3e 8e41 1a3e 9623 20bd 609e be3d
00000210: ed1b 123e dc78 993d 31ad 393e 45f9 d93d
00000220: 85d0 1a3e c03e fb3c df66 b2bd a82d cfbd
00000230: 963d 38be a992 a93d ab3d 72be 4011 a63c
00000240: e594 ab3d 84ac 0ebe c711 27bd 9ee1 ca3c
00000250: b6ed 0f3e c118 103e ee10 fabd 95f7 183e
00000260: 9931 b5bd 3f02 6d3d 2ae5 c9bd 9dc8 92be
00000270: ab5f 73bd 09c2 eebc aaee 043e d330 cabd
00000280: 8b83 37bd b332 a03d 4746 c1bb 7799 223e
00000290: d535 0abe ad73 a33c f387 c9bc e204 3fbe
000002a0: 3d62 e1bd 5252 acbd ab17 f63c e239 963b
000002b0: 639a 05bd e0d1 303c d73a 143e 6ee3 613e
000002c0: f0f9 b13d 2676 1d3d 9f18 8abd cc16 193e
000002d0: aefb a6bd 5e49 9b3b 1dc3 1cbe c57a 143d
000002e0: 6164 32bd 8d14 163e b56f 6abe 7ef4 62be
000002f0: 69e9 f83c 2680 cbbd 5424 8e3d 8493 62be
00000300: 46fc 90bd f0de a7bd 74c7 033e 253a dabd
00000310: fef4 b0bb fb18 063e 5381 5e3c 116a b5bd
00000320: 7c42 423d 05c6 46be 7691 893d 50a1 17be
00000330: db65 0f3e 720e 8dbd 803e f23c 9be4 97bd
00000340: 8671 a0bd ade5 6a3e 0522 6e3a ae6d c13c
00000350: b7b1 7abe 507b 773d 732c 403e 2a41 e93d
00000360: 674d fa3c 9337 44be ce71 00be 45bf 6e3e
00000370: d0a4 19be 7019 f43d 094f d4bc 9b4a b2bd
00000380: 30c5 1cbc b1cf 58be 59c4 373d 0bd8 803d
00000390: 70a0 633e 6cc1 393e 6025 efbc 7b02 e9bd
000003a0: bb26 013e 51f2 55bb a527 09bd d45e dfbc
000003b0: 4adf 11bd ef5d 603e ec77 cabd 6fec f8bd
000003c0: b53e dbbd 4570 f03d 3a96 153d 9f9c 8fbc
000003d0: 3729 ecbc 4ae0 1b3d 0ac3 ecbd df14 47be
000003e0: 7298 4ebe 1183 863e 5f70 5e3e f5b3 8abe
000003f0: 272a 413e 35b9 9d3b 626d a03b b5ad 94be

fc1.bias f4 [128]
0.104805835 -0.038771134 -0.099751204 0.063699916 -0.021269938 -0.16790736 -0.13015252 0.18413153
-0.121115424 0.15896602 -0.08366788 0.13077971 -0.0053501665 0.15870379 0.22325397 0.14783706
-0.017733809 -0.085032485 -0.10665731 -0.029836033 0.035096377 0.11085315 -0.05839999 0.07410937
0.04324476 -0.033434182 -0.060514435 0.06768954 0.077640645 0.17288506 0.16380471 0.19239731
0.19039553 0.037142117 0.13527672 0.12964873 0.06407508 0.10395782 -0.0586507 0.102613986
-0.09175589 0.089302175 -0.059784114 -0.1349427 0.0012186036 -0.10581208 0.02262227 0.1389064
-0.018745946 -0.055868875 -0.030020047 -0.115654804 0.07662402 0.14533724 -0.110530525 0.1485027
-0.015684253 -0.1852667 0.14402437 0.0150202215 -0.06657941 0.090193845 -0.10573303 0.06444289
0.14667189 0.10272185 0.14574695 -0.105644934 -0.0473752 0.06385082 0.02030037 0.1481724
0.19923304 0.14857978 0.013618749 -0.12882127 -0.0049835104 0.035785574 -0.119535096 0.01936026
0.002795617 -0.104530394 0.010525343 -0.096524596 0.1436255 -0.06823477 0.07287618 -0.03195907
-0.15509199 0.080151014 -0.13547482 0.13398811 0.08864312 0.12654872 0.13477676 0.120450936
0.1452205 0.06375579 -0.033261985 -0.024582766 -0.12978311 0.08242453 0.0052587898 0.16952951
0.096165724 0.020321643 -0.100898996 0.18353269 0.025156101 -0.11728084 -0.12624052 -0.1561135
0.1446476 0.1166923 0.09183326 0.1572876 -0.027754135 0.20913437 0.023241883 0.11561036
0.022115022 -0.099199764 0.015436555 0.11545024 0.078304626 0.06543534 -0.07931546 0.15534475
00000000: 71a4 d63d 7bce 1ebd 5c4a ccbd 1a75 823d
00000010: 4b3e aebc e8ef 2bbe b446 05be fa8c 3c3e
00000020: 5d0b f8bd fdc7 223e 115a abbd 1eeb 053e
00000030: 7350 afbb 3f83 223e b09c 643e 9962 173e
00000040: 7e46 91bc 8325 aebd 266f dabd b26a f4bc
00000050: 38c1 0f3d fa06 e33d d434 6fbd a7c6 973d
00000060: 6b21 313d 48f2 08bd fcdd 77bd d0a0 8a3d
00000070: 0f02 9f3d c808 313e 6cbc 273e cd03 453e
00000080: 0cf7 423e 5522 183d fb85 0a3e a3c2 043e
00000090: cc39 833d d6e7 d43d b73b 70bd 4827 d23d
000000a0: 83ea bbbd 0fe4 b63d 30e0 74bd 6b2e 0abe
000000b0: 8db9 9f3a 01b4 d8bd 5752 b93c 7b3d 0e3e
000000c0: 1991 99bc c3d6 64bd 9aec f5bc 6ddc ecbd
000000d0: 0eed 9c3d 49d3 143e d45d e2bd 1711 183e
000000e0: 437c 80bc 8eb6 3dbe 207b 133e 6017 763c
000000f0: c95a 88bd 8db7 b83d 8f8a d8bd a2fa 833d
00000100: 2831 163e d55f d23d b03e 153e 5f5c d8bd
00000110: 7f0c 42bd 38c4 823d f64c a63c 81ba 173e
00000120: bf03 4c3e 4c25 183e 2c21 5f3c b9e9 03be
00000130: b74c a3bb e593 123d d1ce f4bd 6899 9e3c
00000140: ac36 373b 0814 d6bd 7d72 2c3c b0ae c5bd
00000150: 9012 133e acbe 8bbd 1b40 953d 84e7 02bd
00000160: 6fd0 1ebe 3726 a43d e9b9 0abe 2e34 093e
00000170: 868a b53d fd95 013e eb02 0a3e fbae f63d
00000180: afb4 143e 6592 823d b83d 08bd cc61 c9bc
00000190: dde5 04be 31ce a83d ed51 ac3b 2599 2d3e
000001a0: 89f2 c43d 9379 a63c 22a4 cebd feef 3b3e
000001b0: 2b14 ce3c f030 f0bd 3245 01be 38dc 1fbe
000001c0: 801e 143e 5ffc ee3d 1413 bc3d 0010 213e
000001d0: a45c e3bc 5227 563e c365 be3c 20c5 ec3d
000001e0: 902a b53c 3f29 cbbd 9be9 7c3c 2d71 ec3d
000001f0: 2d5e a03d f702 863d 2570 a2bd b212 1f3e

fc2.weight f4 [64, 128]
0.015672127 -0.058045946 -0.13522139 -0.06498568 0.15665169 -0.046902258 -0.00031554472 0.032893565
-0.045515355 -0.04695861 -0.05423164 0.07506434 -0.11589116 0.052995954 0.15020321 0.023924362
0.11495438 -0.034707114 -0.0052597634 0.054625243 -0.022254555 -0.020774996 0.017098075 -0.033327952
-0.011460916 -0.11392604 -0.13921793 0.06779636 0.013767011 -0.077052996 0.064808585 0.10813506
-0.04802118 0.055129185 0.1119704 0.116340704 -0.021874433 -0.05143313 -0.021087319 -0.09286217
-0.057219572 0.035964042 0.07372033 -0.08791607 -0.067961924 0.13321842 0.036891345 0.09889601
0.06340999 0.01960116 -0.039041776 -0.020063989 0.06912488 0.023712078 0.1429526 0.06450432
-0.091699176 0.09260462 -0.05271655 0.03892618 0.11667326 -0.0027117776 0.19620833 -0.028039979
0.10065014 0.10098241 0.003100542 0.01698911 -0.09196859 0.0020975028 0.059499174 0.052391626
-0.07149811 -0.055580795 -0.040940054 -0.01504489 0.060102526 0.033247497 0.09527789 0.052511808
-0.12199047 0.085840575 -0.035325337 0.029883545 0.022222891 -0.13424066 -0.008693633 0.085974105
-0.21313734 0.080435425 -0.064786926 0.109678164 -0.030676158 0.010139274 -0.031778514 -0.078363225
0.0318437 -0.029589938 0.11413121 0.003172131 -0.07638551 0.060292486 -0.006866971 -0.1611049
-0.09316003 0.015359638 0.034662437 -0.029635485 -0.12192203 -0.08474987 0.056100976 0.1394925
0.0074330694 -0.076294355 0.0055669667 -0.047539778 0.11818416 -0.10024483 -0.08795244 -0.005950504
-0.012764851 0.047505103 0.0072636474 -0.06352988 -0.0015783404 0.038824983 -0.062997416 -0.022676706
-0.017845826 -0.13032126 -0.022260703 -0.06769099 0.088035144 0.027501162 0.09620667 0.069124624
0.05530171 0.06728506 -0.0012480174 0.0753014 -0.08394371 0.05565601 -0.0023383275 0.05300654
-0.029887674 0.02386817 0.03264694 -0.021259123 -0.0827982 -0.008132885 0.015041399 0.069427565
0.061134193 0.07230376 0.028742366 0.022723919 0.02025171 0.011939662 -0.04209781 -0.013953173
0.04173894 0.011018808 -0.05567273 0.07942737 -0.05877864 0.06245353 -0.006290556 0.049137767
0.08713731 0.18458775 0.050577756 -0.022694575 -0.04032563 0.08365289 0.0145641165 -0.049976375
0.023099378 0.0026899867 -0.050285988 -0.103000894 -0.047979094 0.023283707 -0.036223073 0.0118314
-0.088007726 0.07300356 0.056823824 0.005558102 0.0533134 -0.020501966 -0.04618884 0.08726052
0.06773915 0.096539654 -0.11444226 0.048059482 0.036501337 -0.038572125 -0.014483861 -0.004167079
-0.08234836 -0.0372114 -0.07751962 0.052275296 -0.006560995 -0.028847294 0.09144983 0.0029920863
0.04990251 -0.07176855 0.0516522 0.010844476 -0.13911904 -0.107376024 0.032433975 0.0135493595
0.048041597 0.08668166 0.06491681 0.033445552 -0.08321048 0.016472831 -0.02387306 -0.027173478
-0.012486308 0.08028443 0.03076951 0.07629637 0.1624053 0.078682706 -0.17427263 0.05890563
0.05944784 0.051148195 -0.1503606 -0.09517179 0.0030300196 0.09258827 -0.0168129 -0.18434653
-0.047612756 0.052567575 0.08080074 -0.054251138 0.17029352 -0.0392312 0.08533252 0.045944866
-0.16707689 0.06360172 -0.040403668 0.04077899 -0.021923942 0.09187616 -0.062493656 -0.058382846
00000000: d562 803c 96c1 6dbd 7a77 0abe 3617 85bd
00000010: 4d69 203e 951c 40bd b26f a5b9 67bb 063d
00000020: 4f6e 3abd ac57 40bd ff21 5ebd 55bb 993d
00000030: 5858 edbd 4912 593d dfce 193e 06fd c33c
00000040: 346d eb3d 0c29 0ebd 185a acbb b8be 5f3d
00000050: 2f4f b6bc 5330 aabc 4311 8c3c e482 08bd
00000060: 91c6 3bbc 0e52 e9bd 258f 0ebe d1d8 8a3d
00000070: 088f 613c f6cd 9dbd 5dba 843d ea75 dd3d
00000080: dbb1 44bd 24cf 613d bd50 e53d 0944 ee3d
00000090: 0332 b3bc 8cab 52bd 50bf acbc 852e bebd
000000a0: 125f 6abd 084f 133d affa 963d 570d b4bd
000000b0: 9f2f 8bbd 696a 083e 611b 173d fe89 ca3d
000000c0: 19dd 813d 9d92 a03c 45ea 1fbd 3c5d a4bc
000000d0: 5891 8d3d d53f c23c 2b62 123e d71a 843d
000000e0: c7cc bbbd 7ea7 bd3d 4fed 57bd 0f71 1f3d
000000f0: 64f2 ee3d 14b8 31bb d6ea 483e 19b4 e5bc
00000100: a921 ce3d decf ce3d 7632 4b3b bf2c 8b3c
00000110: 075a bcbd 4276 093b 68b5 733d 9a98 563d
00000120: 9a6d 92bd b0a8 63bd c2b0 27bd d87e 76bc
00000130: 112e 763d 872e 083d 0e21 c33d 9f16 573d
00000140: 24d6 f9bd 2fcd af3d 4db1 10bd 56ce f43c
00000150: c80c b63c 6276 09be bd6f 0ebc 3113 b03d
00000160: ad40 5abe 54bb a43d 02af 84bd f29e e03d
00000170: 914c fbbc 331f 263c 302a 02bd e67c a0bd
00000180: 8a6e 023d 9966 f2bc a0bd e93d 87e3 4f3b
00000190: 0270 9cbd 41f5 763d 5404 e1bb aff8 24be
000001a0: b0ca bebd fea6 7b3c 33fa 0d3d 1ec6 f2bc
000001b0: 42b2 f9bd 5791 adbd 23ca 653d 1fd7 0e3e
000001c0: 1b91 f33b 3740 9cbd 1a6b b63b 12b9 42bd
000001d0: 890a f23d 294d cdbd 6920 b4bd 72fc c2bb
000001e0: aa23 51bc b694 423d e403 ee3b f41b 82bd
000001f0: 51e0 ceba f206 1f3d ca04 81bd 80c4 b9bc
00000200: 6931 92bc f072 05be 145c b6bc 93a1 8abd
00000210: c54b b43d 1e4a e13c 0108 c53d 3691 8d3d
00000220: 0c84 623d c0cc 893d 8494 a3ba 9f37 9a3d
00000230: aeea abbd 8ef7 633d a03e 19bb 631d 593d
00000240: ffd6 f4bc 2e87 c33c ccb8 053d 9d27 aebc
00000250: 1a92 a9bd cb3f 05bc 3370 763c 0a30 8e3d
00000260: d967 7a3d fe13 943d 1c75 eb3c 8327 ba3c
00000270: eae6 a53c 929e 433c c16e 2cbd d99b 64bc
00000280: 73f6 2a3d 3b88 343c 1709 64bd d1aa a23d
00000290: dfc1 70bd 46cf 7f3d 0221 cebb af44 493d
000002a0: 0c75 b23d 9204 3d3e 9f2a 4f3d f9e9 b9bc
000002b0: 7d2c 25bd 3552 ab3d 559e 6e3c 07b4 4cbd
000002c0: e83a bd3c 7d4a 303b aef8 4dbd 22f2 d2bd
000002d0: ba85 44bd 79bd be3c a55e 14bd 7dd8 413c
000002e0: 653d b4bd e482 953d 19c0 683d bd20 b63b
000002f0: 275f 5a3d bdf3 a7bc 8230 3dbd a5b5 b23d
00000300: d3ba 8a3d 95b6 c53d b460 eabd 05da 443d
00000310: 6d82 153d cefd 1dbd b74d 6dbc fe8b 88bb
00000320: 42a6 a8bd fb6a 18bd 9bc2 9ebd 9f1e 563d
00000330: 9dfd d6bb 2951 ecbc 0c4a bb3d e116 443b
00000340: 9366 4c3d 64fb 92bd 4291 533d 07ad 313c
00000350: 3975 0ebe f6e7 dbbd 7dd9 043d 22fe 5d3c
00000360: 44c7 443d 2786 b13d 1bf3 843d 34fe 083d
00000370: 426a aabd 08f2 863c 6f91 c3bc ea9a debc
00000380: 5f93 4cbc 2a6c a43d 5710 fc3c 4541 9c3d
00000390: 934d 263e 6624 a13d 8674 32be 0847 713d
000003a0: 947f 733d c580 513d 21f8 19be 6de9 c2bd
000003b0: 4b93 463b eb9e bd3d 35bb 89bc 56c5 3cbe
000003c0: 9805 43bd 1951 573d dc7a a53d 7136 5ebd
000003d0: 6d61 2e3e e5b0 20bd d1c2 ae3d af30 3c3d
000003e0: 3416 2bbe 9e41 823d 517e 25bd df07 273d
000003f0: d799 b3bc 9129 bc3d 59f9 7fbd da22 6fbd

fc2.bias f4 [64]
-0.058197945 -0.08738021 -0.0158296 -0.02746097 -0.053441614 -0.06047063 -0.09570795 0.09248837
-0.00951264 0.048218142 0.07233669 0.13227816 0.03433161 0.003077975 0.08886335 0.045406915
-0.03946996 0.11403292 0.027684174 0.0736195 0.06991217 -0.0624701 -0.04240342 0.18192632
0.09971418 0.0031955575 0.022676574 -0.062400598 -0.0793627 -0.06961766 -0.015164576 -0.06351069
-0.04090805 0.028087875 0.008079915 -0.036935475 0.14557454 -0.06328627 0.00057957484 0.01425794
-0.07333624 0.046815235 -0.07732967 0.1421386 0.20014316 0.19707058 0.02761683 -0.07910719
0.06703593 -0.07611454 0.056252595 -0.0073315776 0.039057903 0.11292035 -0.05257294 0.11939707
0.1253756 0.011464413 -0.049576595 0.20211028 0.08456268 0.021613102 0.02103052 -0.01651895
00000000: f860 6ebd 65f4 b2bd 14ad 81bc d4f5 e0bc
00000010: 98e5 5abd 0db0 77bd 8802 c4bd 8b6a bd3d
00000020: e7da 1bbc 6380 453d 4225 943d ed73 073e
00000030: 4d9f 0c3d dab7 493b fdfd b53d 9afc 393d
00000040: 41ab 21bd 178a e93d ecc9 e23c d2c5 963d
00000050: 1d2e 8f3d a6e0 7fbd 35af 2dbd e54a 3a3e
00000060: f336 cc3d 8f6c 513b 39c4 b93c c597 7fbd
00000070: e988 a2bd b493 8ebd d774 78bc e511 82bd
00000080: 338f 27bd 8b18 e63c 9f61 043c a749 17bd
00000090: 7e11 153e 3b9c 81bd 9cee 173a 239a 693c
000000a0: 5031 96bd 55c1 3f3d 055f 9ebd c88c 113e
000000b0: 54f2 4c3e dfcc 493e b13c e23c f302 a2bd
000000c0: 224a 893d f1e1 9bbd 1f69 663d bb3d f0bb
000000d0: 2efb 1f3d c942 e73d b956 57bd 7386 f43d
000000e0: 7662 003e 3cd5 3b3c d410 4bbd fff5 4e3e
000000f0: 332f ad3d f60d b13c 3248 ac3c c052 87bc

V.weight f4 [1, 64]
0.1443487 -0.06869641 -0.17990108 0.17933933 -0.091798365 0.32903355 -0.021617154 0.082993135
0.016033873 0.18532115 0.11728124 0.09563208 0.19044197 0.009576749 0.13517478 0.066577494
-0.034829956 0.13658181 -0.044240844 0.069055766 0.2261678 -0.19892074 0.25679332 0.21667835
0.15649506 -0.09317044 -0.26795554 0.24217983 -0.021668741 0.053644087 0.2199566 -0.09100185
-0.058023423 -0.07821961 0.019192763 -0.005876697 0.1045239 -0.22004898 0.09828448 -0.028121807
0.113903 0.17585318 -0.0045398693 0.13449007 0.13115953 0.20241885 0.053941783 -0.09123855
-0.21263844 0.36779788 -0.28373283 0.081233814 -0.17172705 0.13714933 0.2936931 0.11959733
0.059626453 0.21707234 -0.14086188 0.15398124 0.19142446 0.16357864 0.07935678 -0.11479746
00000000: 25d0 133e b4b0 8cbd fd37 38be bba4 373e
00000010: c800 bcbd 1677 a83e 7516 b1bc 4ef8 a93d
00000020: 7859 833c d4c4 3d3e 2631 f03d c1da c33d
00000030: 3803 433e cce7 1c3c 426b 0a3e c859 883d
00000040: dba9 0ebd 1adc 0b3e e335 35bd 1c6d 8d3d
00000050: 8898 673e e1b1 4bbe 6a7a 833e eee0 5d3e
00000060: 3e40 203e 25d0 bebd 7831 89be fdfd 773e
00000070: a582 b1bc e7b9 5b3d 4e3c 613e 2e5f babd
00000080: f8a9 6dbd 9a31 a0bd 243a 9d3c 4f91 c0bb
00000090: a010 d63d 8554 61be 6049 c93d b45f e6bc
000000a0: fa45 e93d db12 343e 2fc3 94bb c4b7 093e
000000b0: af4e 063e e346 4f3e 0ff2 5c3d 47db babd
000000c0: e4bd 59be 0150 bc3e 6e45 91be ea5d a63d
000000d0: 37d9 2fbe e070 0c3e f15e 963e 72ef f43d
000000e0: de3a 743d 3648 5e3e 193e 10be 42ad 1d3e
000000f0: c604 443e 2981 273e cf85 a23d ee1a ebbd

A.weight f4 [4, 64]
-0.040543556 -0.08816827 0.1659809 0.14441381 -0.09560486 0.26551744 -0.04697366 -0.095401585
0.29559836 0.13348362 0.19589008 0.02168797 -0.10214234 -0.1022003 -0.06862124 -0.07280833
0.115839295 -0.008285641 0.02699707 -0.14898889 0.1812642 -0.11516116 0.08033804 -0.029990293
-0.118476965 -0.2740766 -0.10179116 -0.067886695 -0.098397836 0.08645399 0.058183096 -0.017327325
-0.13292547 -0.11317019 -0.19904698 -0.16867669 0.040729146 -0.08978301 0.10025626 -0.020929737
0.07421186 0.061506696 -0.14894843 -0.1609525 0.03088736 0.03438227 0.10183182 -0.048788797
-0.009009851 0.11694344 0.09634795 -0.0949685 0.027095461 -0.011225121 -0.12065178 -0.09142421
0.041652128 0.050770644 0.19460452 -0.05938106 -0.015360419 0.031177629 0.013460111 0.1280517
0.04403145 0.009875338 -0.1901365 0.20997691 -0.14067309 0.18477578 0.036841024 -0.06367605
-0.08550828 0.0889312 0.2234396 -0.06398588 0.103930764 -0.03847134 0.05605664 0.15719147
0.0039637517 0.025772924 -0.044233166 0.13820153 0.032761753 -0.047966693 0.04502375 -0.101893924
0.083962046 0.10686704 0.12422656 0.10916584 0.065005675 0.14446397 0.044380408 0.079703756
-0.0772219 0.047661446 0.054174665 0.12342727 -0.08050452 0.033810727 -0.111475624 -0.026041219
0.17880964 0.027884264 -0.16343476 -0.077819265 0.047796838 -0.022028657 -0.035927393 0.0027528878
0.0014057341 0.09158161 0.17246193 -0.04457491 0.046483934 -0.00039537068 0.23090865 0.053468127
-0.056770127 0.17920017 -0.11629396 -0.110912085 0.24130435 0.10293344 -0.12666836 -0.10691735
-0.25813377 -0.07050785 0.09257997 -0.059438556 0.06320919 0.35149124 0.10531914 0.09284431
-0.07455944 0.049537864 0.12747227 0.08505761 0.12376164 0.060148157 0.12474769 0.13034013
-0.15249905 0.15801847 -0.11295245 0.1317944 -0.13323304 -0.015334763 0.04738861 -0.053907126
0.1416603 -0.083449304 -0.27878842 0.1465207 -0.14189154 -0.113970935 0.116576664 0.05475672
-0.13894577 -0.30298752 -0.021272823 -0.06905895 -0.020471767 -0.19323967 0.12587894 -0.23390289
0.09602569 -0.024432449 -0.10955491 -0.16566978 -0.012477825 -0.12893118 0.20623 -0.16834594
-0.23106708 0.23405863 -0.15640947 0.16412792 -0.19362426 -0.07288528 0.2015264 0.06930891
-0.11178691 -0.058987275 -0.08472775 -0.042002104 -0.068515494 0.10995667 -0.024234377 -0.011670805
0.23121306 -0.02268608 0.14508206 0.03949046 -0.13232575 -0.10213649 -0.169701 0.056996673
-0.014538196 0.021671878 -0.06897015 -0.12267834 -0.22215198 -0.12823482 0.027448665 -0.07557142
-0.029710662 -0.052055027 -0.00094356324 -0.108656466 -0.007949389 -0.2527039 0.17060733 -0.03385308
0.13648681 -0.16385108 0.23577331 0.048676793 0.010810497 -0.048752557 0.2442075 -0.15187173
0.112190485 0.2591129 -0.088138856 0.20489784 -0.021470144 -0.040360168 0.17875443 0.22977972
0.032940708 0.04802551 0.0918471 -0.16443442 0.07377136 -0.0074684345 -0.15720218 -0.09206108
-0.18076745 -0.02495131 -0.30151448 0.016441429 -0.027388223 -0.065339416 0.29610533 -0.14968212
-0.104312055 0.23263559 0.08547749 0.059110835 0.2885707 0.14016217 -0.049689833 -0.28472173
00000000: 0011 26bd 9191 b4bd e6f6 293e 37e1 133e
00000010: 7bcc c3bd e7f1 873e 7467 40bd e861 c3bd
00000020: ab58 973e eeaf 083e 6997 483e f8aa b13c
00000030: 0130 d1bd 644e d1bd 4b89 8cbd 891c 95bd
00000040: 273d ed3d 7fc0 07bc f628 dd3c 8b90 18be
00000050: 539d 393e 9dd9 ebbd 4588 a43d 34ae f5bc
00000060: 0da4 f2bd c553 8cbe e277 d0bd 2e08 8bbd
00000070: ce84 c9bd ca0e b13d 6651 6e3d 09f2 8dbc
00000080: 9d1d 08be c6c5 e7bd f9d2 4bbe 95b9 2cbe
00000090: 9bd3 263d 28e0 b7bd 2753 cd3d d774 abbc
000000a0: 63fc 973d 72ee 7b3d f085 18be bbd0 24be
000000b0: 7d07 fd3c 6cd4 0c3d 348d d03d c3d6 47bd
000000c0: 0e9e 13bc 0b80 ef3d 1352 c53d d87e c2bd
000000d0: 4df7 dd3c 92e9 37bc 4818 f7bd 9e3c bbbd
000000e0: 6c9b 2a3d e1f4 4f3d 6846 473e 8e39 73bd
000000f0: 44aa 7bbc 3a68 ff3c cc87 5c3c fc1f 033e
00000100: 525a 343d 2bcc 213c 25b3 42be 3004 573e
00000110: 9b0c 10be dd35 3d3e 9de6 163d 9768 82bd
00000120: f71e afbd 9021 b63d 5acd 643e 070b 83bd
00000130: a7d9 d43d 2094 1dbd a69b 653d cdf6 203e
00000140: 5ce2 813b bd21 d33c d62d 35bd b484 0d3e
00000150: 3031 063d b978 44bd d36a 383d c3ad d0bd
00000160: 4bf4 ab3d 1bdd da3d 7f6a fe3d 5792 df3d
00000170: b221 853d 5dee 133e 3bc8 353d b93b a33d
00000180: 8426 9ebd a638 433d 41e6 5d3d 70c7 fc3d
00000190: 8edf a4bd 1e7d 0a3d 554d e4bd 6554 d5bc
000001a0: e019 373e 8a6d e43c 715b 27be b55f 9fbd
000001b0: 9ec6 433d 7175 b4bc 9a28 13bd cb69 343b
000001c0: 9c40 b83a 248f bb3d dc99 303e 2e94 36bd
000001d0: f065 3e3d c149 cfb9 5173 6c3e 6501 5b3d
000001e0: cb87 68bd 4080 373e 872b eebd e025 e3bd
000001f0: 7d18 773e c4ce d23d 5ab5 01be 7cf7 dabd
00000200: 1c2a 84be 6b66 90bd 919a bd3d d875 73bd
00000210: d273 813d a9f6 b33e 90b1 d73d 2825 be3d
00000220: 9fb2 98bd 37e8 4a3d 1788 023e af32 ae3d
00000230: be76 fd3d ea5d 763d b87b ff3d e277 053e
00000240: b628 1cbe 98cf 213e 9d53 e7bd 1cf5 063e
00000250: 3e6e 08be a83e 7bbc 8f1a 423d b8cd 5cbd
00000260: 660f 113e 78e7 aabd 5bbd 8ebe 8609 163e
00000270: 044c 11be 9869 e9bd bfbf ee3d 9548 603d
00000280: cd47 0ebe 2e21 9bbe 5844 aebc c76e 8dbd
00000290: 68b4 a7bc 9fe0 45be 69e6 003e 3d84 6fbe
000002a0: 1ea9 c43d 8f26 c8bc 535e e0bd 57a5 29be
000002b0: cb6f 4cbc 8906 04be f52d 533e e162 2cbe
000002c0: d99c 6cbe 11ad 6f3e ce29 20be 2611 283e
000002d0: 7045 46be e144 95bd f05c 4e3e d4f1 8d3d
000002e0: 89f0 e4bd a49c 71bd be85 adbd 660a 2cbd
000002f0: da51 8cbd f630 e13d 2c87 c6bc e736 3fbc
00000300: 1ec3 6c3e 28d8 b9bc 6490 143e c0c0 213d
00000310: 6780 07be f02c d1bd 19c6 2dbe 5875 693d
00000320: 9d31 6ebc 3989 b13c 3940 8dbd c83e fbbd
00000330: cf7b 63be fd4f 03be 06dc e03c 30c5 9abd
00000340: c663 f3bc a737 55bd 7559 77ba 4887 debd
00000350: 273e 02bc 6862 81be b0b3 2e3e 87a9 0abd
00000360: 33c3 0b3e 94c8 27be 8f6e 713e 5161 473d
00000370: 831e 313c c3b0 47bd 8811 7a3e 4384 1bbe
00000380: 20c4 e53d 72aa 843e 2582 b4bd bdd0 513e
00000390: 28e2 afbc b450 25bd 670b 373e 604b 6b3e
000003a0: d6ec 063d 66b6 443d 551a bc3d 7f61 28be
000003b0: 7015 973d c5b9 f4bb 9cf9 20be 858a bcbd
000003c0: 1a1b 39be b166 ccbc 1b60 9abe 2db0 863c
000003d0: 445d e0bc acd0 85bd 1e9b 973e 4546 19be
000003e0: 8fa1 d5bd 0638 6e3e d30e af3d 341e 723d
000003f0: 8abf 933e ac86 0f3e 9187 4bbd 0cc7 91be

A.bias f4 [4]
-0.09223058 0.035339408 -0.023294827 -0.009496259
00000000: 63e3 bcbd 0ec0 103d cbd4 bebc 3296 1bbc
